2025-02-26 13:31:26,411 ----------------------------------------------------------------------------------------------------
2025-02-26 13:31:26,412 Model: "SequenceTagger(
  (embeddings): TransformerWordEmbeddings(
    (model): DebertaV2Model(
      (embeddings): DebertaV2Embeddings(
        (word_embeddings): Embedding(128101, 768, padding_idx=0)
        (LayerNorm): LayerNorm((768,), eps=1e-07, elementwise_affine=True)
        (dropout): Dropout(p=0.1, inplace=False)
      )
      (encoder): DebertaV2Encoder(
        (layer): ModuleList(
          (0-11): 12 x DebertaV2Layer(
            (attention): DebertaV2Attention(
              (self): DisentangledSelfAttention(
                (query_proj): Linear(in_features=768, out_features=768, bias=True)
                (key_proj): Linear(in_features=768, out_features=768, bias=True)
                (value_proj): Linear(in_features=768, out_features=768, bias=True)
                (pos_dropout): Dropout(p=0.1, inplace=False)
                (dropout): Dropout(p=0.1, inplace=False)
              )
              (output): DebertaV2SelfOutput(
                (dense): Linear(in_features=768, out_features=768, bias=True)
                (LayerNorm): LayerNorm((768,), eps=1e-07, elementwise_affine=True)
                (dropout): Dropout(p=0.1, inplace=False)
              )
            )
            (intermediate): DebertaV2Intermediate(
              (dense): Linear(in_features=768, out_features=3072, bias=True)
              (intermediate_act_fn): GELUActivation()
            )
            (output): DebertaV2Output(
              (dense): Linear(in_features=3072, out_features=768, bias=True)
              (LayerNorm): LayerNorm((768,), eps=1e-07, elementwise_affine=True)
              (dropout): Dropout(p=0.1, inplace=False)
            )
          )
        )
        (rel_embeddings): Embedding(512, 768)
        (LayerNorm): LayerNorm((768,), eps=1e-07, elementwise_affine=True)
      )
    )
  )
  (locked_dropout): LockedDropout(p=0.5)
  (linear): Linear(in_features=768, out_features=105, bias=True)
  (loss_function): CrossEntropyLoss()
)"
2025-02-26 13:31:26,412 ----------------------------------------------------------------------------------------------------
2025-02-26 13:31:26,412 Corpus: 113552 train + 14748 dev + 14744 test sentences
2025-02-26 13:31:26,412 ----------------------------------------------------------------------------------------------------
…
