2025-02-26 13:22:07,674 ----------------------------------------------------------------------------------------------------
2025-02-26 13:22:07,676 Model: "SequenceTagger(
  (embeddings): TransformerWordEmbeddings(
    (model): RobertaModel(
      (embeddings): RobertaEmbeddings(
        (word_embeddings): Embedding(50266, 1024, padding_idx=1)
        (position_embeddings): Embedding(514, 1024, padding_idx=1)
        (token_type_embeddings): Embedding(1, 1024)
        (LayerNorm): LayerNorm((1024,), eps=1e-05, elementwise_affine=True)
        (dropout): Dropout(p=0.1, inplace=False)
      )
      (encoder): RobertaEncoder(
        (layer): ModuleList(
          (0-23): 24 x RobertaLayer(
            (attention): RobertaAttention(
              (self): RobertaSdpaSelfAttention(
                (query): Linear(in_features=1024, out_features=1024, bias=True)
                (key): Linear(in_features=1024, out_features=1024, bias=True)
                (value): Linear(in_features=1024, out_features=1024, bias=True)
                (dropout): Dropout(p=0.1, inplace=False)
              )
              (output): RobertaSelfOutput(
                (dense): Linear(in_features=1024, out_features=1024, bias=True)
                (LayerNorm): LayerNorm((1024,), eps=1e-05, elementwise_affine=True)
                (dropout): Dropout(p=0.1, inplace=False)
              )
            )
            (intermediate): RobertaIntermediate(
              (dense): Linear(in_features=1024, out_features=4096, bias=True)
              (intermediate_act_fn): GELUActivation()
            )
            (output): RobertaOutput(
              (dense): Linear(in_features=4096, out_features=1024, bias=True)
              (LayerNorm): LayerNorm((1024,), eps=1e-05, elementwise_affine=True)
              (dropout): Dropout(p=0.1, inplace=False)
            )
          )
        )
      )
      (pooler): RobertaPooler(
        (dense): Linear(in_features=1024, out_features=1024, bias=True)
        (activation): Tanh()
      )
    )
  )
  (locked_dropout): LockedDropout(p=0.5)
  (linear): Linear(in_features=1024, out_features=105, bias=True)
  (loss_function): CrossEntropyLoss()
)"
2025-02-26 13:22:07,676 ----------------------------------------------------------------------------------------------------
2025-02-26 13:22:07,676 Corpus: 113552 train + 14748 dev + 14744 test sentences
2025-02-26 13:22:07,676 ----------------------------------------------------------------------------------------------------
…
